models/mnist_tinyvgg_model.pth (torch, 34583 bytes, 10 tensors)

conv_block_1.0.weight f4 [10, 1, 3, 3]
0	0x3d939fd9	0.07208223
1	0x3ed63bfa	0.41842633
2	0x3ed72eae	0.420278
3	0x3d4e737d	0.050403107
4	0x3d5d66f3	0.05405326
5	0x3e2e09f0	0.16995978
6	0xbe17f3fa	-0.14839163
7	0xbe53518e	-0.2063658
8	0xbe2ce508	-0.16884243
9	0x3e74bf16	0.23901019
10	0x3d8317fd	0.0640106
11	0x3c93fc35	0.018064598
12	0x3e0a2e45	0.13494213
13	0xbda55d06	-0.080743834
14	0x3cb5b7b7	0.022182329
15	0x3e239f58	0.15978754
16	0x3e953ea6	0.2914936
17	0xbf056025	-0.5209983
18	0xbf0fd825	-0.56189185
19	0xbf330c4f	-0.69940656
20	0xbd88ad74	-0.066737086
21	0xbe6061a6	-0.2191225
22	0xbe844a59	-0.25837973
23	0xbeaa800a	-0.3330081
24	0x3e7d8a35	0.24759753
25	0x3eb4e320	0.35329533
26	0x3ed1f97c	0.41010654
27	0xbcdb74f9	-0.026789175
28	0x3e16e049	0.14733995
29	0x3e839228	0.25697446
30	0x3de3f592	0.11130823
31	0x3f0b057f	0.5430526
32	0xbe6552a8	-0.22394812
33	0xbeda3a7a	-0.4262274
34	0x3e7baee0	0.24578428
35	0xbe471f7f	-0.19445609
36	0xbd94eeed	-0.07272134
37	0xbefcb6dc	-0.4935826
38	0xbde3340f	-0.11093914
39	0x3efce94f	0.4939675
40	0x3d88cd79	0.06679816
41	0x3dca2feb	0.09872421
42	0x3f0e25dd	0.55526525
43	0xbdbec67c	-0.09315202
44	0xbc323f8b	-0.010879408
45	0xbdf0ffe6	-0.11767559
46	0x3d71b2b5	0.05900832
47	0x3e170edd	0.14751764
48	0xbe835767	-0.2565262
49	0x3f063acb	0.5243346
50	0x3e6a2074	0.22863942
51	0x3a878521	0.0010339358
52	0x3ed30cdb	0.41220745
53	0x3d3bad8c	0.045819804
54	0xbe9d1cca	-0.30686027
55	0xbea8fdb5	-0.33006063
56	0xbebce6c6	-0.36894816
57	0x3b9bf9a8	0.004759986
58	0x3d3e553d	0.04646801
59	0x3e92400b	0.28564486
60	0x3f0fcc9f	0.561716
61	0x3f3aff69	0.73045975
62	0xba14dcd7	-0.00056786597
63	0xbef201dd	-0.47267047
64	0x3e60fa6c	0.21970528
65	0x3f0d0cf4	0.5509789
66	0x3ecba60c	0.3977512
67	0x3d9d106d	0.076691486
68	0xbe8b6a91	-0.2722974
69	0xbe45a04c	-0.1929943
70	0x3ed835a6	0.4222843
71	0x3dc9e73c	0.098585576
72	0x3ea39276	0.31947678
73	0xbe792e15	-0.24333985
74	0xbf03fac9	-0.5155454
75	0x3e936f01	0.28795627
76	0x3f15d536	0.5852846
77	0xbe9a82c8	-0.30177903
78	0xba1f1ce2	-0.00060696725
79	0x3f20e105	0.6284335
80	0xbd8c8215	-0.06860749
81	0xbd3db188	-0.046311885
82	0xbe6aa7f8	-0.22915637
83	0x3d576e6d	0.052595545
84	0xbd6d49f8	-0.05793187
85	0x3ec4256f	0.3830981
86	0x3b3bfe46	0.0028685494
87	0xbc2f13e1	-0.010685892
88	0xbc26ec98	-0.010188244
89	0x3e8c912f	0.27454516

conv_block_1.0.bias f4 [10]
0	0x3d3bab12	0.045817442
1	0x3d925cc4	0.071466
2	0x3e9a738b	0.30166277
3	0x3b9887f3	0.0046548783
4	0x3caf1a2a	0.02137478
5	0xbd6680ac	-0.056275055
6	0x3df4a7ba	0.11946054
7	0xbc767480	-0.015042424
8	0xbc80dca4	-0.01573021
9	0xbd1398b4	-0.0360343

conv_block_1.2.weight f4 [10, 10, 3, 3]
0	0x3d9818f6	0.07426636
1	0x3e43c575	0.19118293
2	0x3e4be511	0.199116
3	0x3d570eb4	0.052504256
4	0x3e2fb5ea	0.17159238
5	0x3e48ef09	0.19622435
6	0xbcff2baf	-0.03114876
7	0x3d8c5aab	0.06853231
8	0x3d1d1ffa	0.038360573
9	0x3d32dd32	0.04366798
10	0x3ce76b96	0.028249543
11	0x3e767344	0.24067408
12	0x3d654094	0.05596979
13	0x3d6b03d1	0.057376686
14	0x3c7ed09c	0.015552666
15	0xbcae33e1	-0.021264972
16	0xbdabe405	-0.08393101
17	0xbe42b723	-0.19015174
18	0xbe1d268e	-0.15346739
19	0xbe7b0c79	-0.24516477
20	0xbe6516e6	-0.22372016
21	0x3d35eb27	0.044413712
22	0x3cc6b734	0.02425728
23	0x3e11b9d0	0.14231038
24	0x3ef0752d	0.46964398
25	0x3e933662	0.28752428
26	0x3e208466	0.15675506
27	0x3e53997b	0.20664017
28	0x3e1e7628	0.1547476
29	0x3ddf18bf	0.10893392
30	0x3d1f2445	0.03885295
31	0x3e0dce24	0.13848168
32	0x3e499b2b	0.19688098
33	0xbe8f2278	-0.27955985
34	0xbd46c17b	-0.04852436
35	0xbe350148	-0.1767627
36	0x3e9edc9a	0.3102768
37	0x3e950d6e	0.2911181
38	0x3eeda2b4	0.46413195
39	0xbec9799f	-0.39350602
40	0xbe5592de	-0.20856807
41	0xbbd5b9d8	-0.0065223984
42	0xbe9fcb87	-0.31209967
43	0xbed15173	-0.40882453
44	0xbf58cb2c	-0.84685016
45	0x3db909b5	0.090350546
46	0x3d059b5e	0.032618873
47	0x3e9485fe	0.29008478
48	0xbcec14c0	-0.028818488
49	0x3db2b483	0.08725836
50	0x3e372127	0.1788374
51	0xbe51df65	-0.20495375
52	0xbe3b4313	-0.18287306
53	0xbe48b617	-0.19600712
54	0x3d5ec46f	0.054386552
55	0x3e61393f	0.21994494
56	0x3e6bad13	0.23015241
57	0xbec81eec	-0.39086092
58	0xbedd41bf	-0.43214223
59	0xbe76f773	-0.24117832
60	0xbc294ba4	-0.010332976
61	0xbe8c034c	-0.27346265
62	0xbf0500de	-0.5195445
63	0x3e2a0ee9	0.1660725
64	0x3e536b6b	0.20646445
65	0x3e925c95	0.2858626
66	0xbe2a924b	-0.16657369
67	0xbdc574ff	-0.09641456
68	0x3e0a38d0	0.13498235
69	0xbe1e130c	-0.15436953
70	0xbc29c232	-0.010361241
71	0xbe273b6d	-0.16331263
72	0x3e8eeabe	0.2791347
73	0x3e5fdc90	0.21861482
74	0x3e5dfc5e	0.21678302
75	0x3c603f29	0.013686934
76	0x3da7d4cf	0.08194887
77	0xbd6cd1e6	-0.057817362
78	0xbedb9dbc	-0.4289378
79	0xbf14a7a4	-0.580683
80	0xbef25ab0	-0.47334814
81	0x3da0d43b	0.0785298
82	0x3e39b7c2	0.18136504
83	0x3e5cbde7	0.21556817
84	0xbda89455	-0.08231417
85	0x3dcee641	0.10102511
86	0x3df87ac2	0.12132789
87	0xbe508cd2	-0.20366219
88	0xbed22fda	-0.41052133
89	0xbe7557ea	-0.23959318
90	0x3d9c2c3f	0.07625627
91	0x3cbcf63c	0.023066632
92	0x3d1767f9	0.03696439
93	0x3d9b84c5	0.07593683
94	0x3d7f18e2	0.06227959
95	0x3ca33676	0.01992343
96	0xbde43ce9	-0.1114443
97	0x3d6b848c	0.057499453
98	0x3da077da	0.0783536
99	0xbdf82a7a	-0.12117477
100	0x3d38eaaa	0.045145668
101	0x3db7824b	0.08960398
102	0xbd8e035e	-0.06934236
103	0x3aa3e52a	0.0012504209
104	0xbcd448dc	-0.025913648
105	0xbd04194a	-0.03225068
106	0x3dc43e9f	0.095822565
107	0x3d9b9dbe	0.07598446
108	0xbe22d49f	-0.15901421
109	0xbe213bfb	-0.15745537
110	0xbe23aa15	-0.1598285
111	0xbd42166f	-0.047384676
112	0xbe76cd64	-0.24101788
113	0xbe580487	-0.21095477
114	0x3cd0e611	0.02550033
115	0xbe2a15d1	-0.16609885
116	0xbe0401f7	-0.12891375
117	0x3e34a34e	0.17640421
118	0x3ddcfe17	0.10790651
119	0x3d4f9d1d	0.050686944
120	0x3c1935e8	0.009351231
121	0xbd22d404	-0.039752975
122	0x3d36a9ed	0.044595648
123	0x3d953169	0.07284815
124	0xbdeb0b2e	-0.11476742
125	0x3d0461b4	0.03231974
126	0xbe6f27a8	-0.23354971
127	0x3d7d4de5	0.061841864
128	0xbc9d1667	-0.019175721
129	0x3de05297	0.10953253
130	0x3e22387d	0.15841861
131	0x3e640aea	0.22269788
132	0xbe7ab2ea	-0.24482313
133	0x3b1902d3	0.002334763
134	0xbcc016e5	-0.023448417
135	0x3d6aea71	0.057352487
136	0x3e05d1f6	0.13068375
137	0x3d58adbb	0.052900057
138	0x3ba51c23	0.0050387545
139	0xbcf3d356	-0.029763859
140	0x3e08e3e1	0.13368179
141	0x3dba69fd	0.09102247
142	0x3e4e00a8	0.20117438
143	0x3e0bb134	0.13641816
144	0xbe33f5bd	-0.1757421
145	0xbca017f7	-0.019542677
146	0x3dc079ce	0.093982324
147	0xbd80c331	-0.0628723
148	0xbdbc45bf	-0.091929905
149	0xbd42be37	-0.047544684
150	0x3d0e5103	0.034745228
151	0x3d15f737	0.036612716
152	0x3e1bc990	0.15213609
153	0xbde2f3d2	-0.11081661
154	0x3e3222b9	0.17396058
155	0x3d61eecf	0.055159386
156	0xbd65cf62	-0.05610598
157	0xbdded778	-0.10880941
158	0x3d9b6883	0.075882934
159	0x3e550be3	0.20805316
160	0x3ddaf251	0.106907494
161	0xbc30e0e2	-0.010795804
162	0x3d9d4940	0.07679987
163	0x3d2e5d29	0.042569313
164	0xbd59a684	-0.053137317
165	0xbcb0c8df	-0.021580158
166	0x3dceeb5d	0.10103486
167	0x3e329e84	0.17443281
168	0xbd474a29	-0.04865471
169	0x3e203e65	0.15648802
170	0x3e4e96ec	0.2017476
171	0xbc7f38c8	-0.015577503
172	0x3dcbf192	0.09958185
173	0xbd6fa544	-0.05850722
174	0xbba5f169	-0.0050641787
175	0xbc311f28	-0.010810651
176	0x3d808ccd	0.062768556
177	0x3e01ff51	0.12695052
178	0x3dd65c30	0.10466802
179	0xbd8607bc	-0.06544444
180	0x3cd8808f	0.026428489
181	0x3d9f3927	0.07774573
182	0x3c7bdd30	0.015372559
183	0xbea52e9b	-0.3226212
184	0xbec99a1a	-0.39375383
185	0xbe732063	-0.23742823
186	0x3d8e2121	0.069399126
187	0x3d0f67a5	0.035010953
188	0x3e07e6da	0.13271657
189	0xbd821b1b	-0.06352826
190	0xbdc207ca	-0.09474142
191	0xbe050664	-0.12990719
192	0x3c39c868	0.0113392845
193	0xbe30a01c	-0.17248577
194	0xbc7a26ad	-0.01526801
195	0x3df28002	0.11840822
196	0x3dac2ead	0.0840734
197	0x3e6f21c5	0.23352726
198	0x3d89e6a1	0.06733442
199	0xbbd2e1dd	-0.0064356164
200	0x3dbaeb9c	0.0912697
201	0x3d83a9c1	0.06428862
202	0x3de22f35	0.1104416
203	0x3cf47679	0.029841648
204	0xbd695d23	-0.056973588
205	0x3d1f0929	0.038827095
206	0x3ca24bc1	0.019811513
207	0xbc3bbf69	-0.01145921
208	0xbe940bed	-0.2891535
209	0xbe64f7a3	-0.22360091
210	0xbd5fa410	-0.05459982
211	0xbeb0ddf8	-0.3454435
212	0xbe524e4b	-0.20537679
213	0x3dc2dbcf	0.095145814
214	0x3e3bc719	0.18337668
215	0x3e994229	0.2993329
216	0xbda55723	-0.08073261
217	0xbebff30f	-0.37490126
218	0xbf0bb7a2	-0.54577076
219	0x3ed160a0	0.40894032
220	0x3eac24e6	0.336219
221	0x3e5cef9b	0.21575777
222	0xbca7808f	-0.020447044
223	0x3dd769c8	0.10518223
224	0x3e1d2d6c	0.15349358
225	0xbdf2526e	-0.118321285
226	0xbe864bc9	-0.26229694
227	0x3c8158e5	0.015789459
228	0x3a8036e2	0.0009781981
229	0xbdf972b8	-0.12180084
230	0x3d630503	0.0554247
231	0x3e3934b1	0.18086506
232	0x3dd7406d	0.10510335
233	0x3e5c2984	0.21500212
234	0xbe145cb0	-0.14488482
235	0xbea8bba0	-0.32955647
236	0x3b5f34eb	0.0034058641
237	0x3e3cc5ec	0.18434876
238	0x3eabe0b7	0.3356988
239	0x3e8e0b46	0.27742976
240	0x3d85a59f	0.0652573
241	0x3e340216	0.1757892
242	0x3e570467	0.20997773
243	0x3db4e699	0.088330455
244	0xbe30f0b1	-0.17279316
245	0xbe78b08f	-0.24286102
246	0xbd46844d	-0.048466016
247	0xbe2694fa	-0.16267768
248	0xbdc29600	-0.095012665
249	0x3d9905ca	0.07471807
250	0x3e24e9af	0.16104768
251	0x3eacdf8e	0.3376431
252	0xbec022d6	-0.37526578
253	0xbeefdc4d	-0.46847764
254	0xbe675d81	-0.22594263
255	0x3e5c6a6f	0.21524976

conv_block_1.2.bias f4 [10]
0	0x3e046db1	0.12932469
1	0x3d392327	0.04519954
2	0xbc445bde	-0.0119847935
3	0x3d6d3951	0.05791599
4	0xbd2611a8	-0.040544182
5	0x3e0753f8	0.13215625
6	0x3e0d318c	0.13788432
7	0x3e3f3d53	0.18675737
8	0x3e2451fc	0.160469
9	0x3dc66509	0.0968724

conv_block_2.0.weight f4 [10, 10, 3, 3]
0	0x3dcfe130	0.10150373
1	0xbe76d2d7	-0.24103867
2	0xbe74e8c0	-0.23916912
3	0xbe471af1	-0.19443871
4	0xbe3679a0	-0.17819834
5	0xbe01e74c	-0.12685889
6	0x3e233105	0.15936668
7	0xbdcaa987	-0.09895616
8	0xbe49e0b1	-0.19714619
9	0xbdbb5945	-0.09147886
10	0x3d2dfafc	0.042475685
11	0xbd61dc6b	-0.055141848
12	0x3d541e4c	0.051786706
13	0x3e1d5657	0.15364967
14	0x3e1e3130	0.15448451
15	0x3dd4a559	0.103831
16	0xbc032ff5	-0.008007039
17	0x3df525a1	0.11970068
18	0xbd189077	-0.037247147
19	0x3c317b9a	0.010832692
20	0x3ead701d	0.33874598
21	0x3d578d4e	0.052624993
22	0xbd8d7189	-0.06906421
23	0x3d80239d	0.06256793
24	0xbd429c30	-0.047512233
25	0xbe9d06d2	-0.30669266
26	0xbe98e491	-0.29861882
27	0x3d24da6f	0.040247377
28	0x3d44461b	0.04791842
29	0x3d25415f	0.040345546
30	0x3e014d80	0.1262722
31	0xbbaa212c	-0.0051919427
32	0x3e2711a1	0.16315319
33	0xbda03817	-0.07823198
34	0x3d27ae4e	0.040937714
35	0xbd19cc6c	-0.037548468
36	0x3e86010d	0.26172677
37	0x3dfced33	0.1234993
38	0x3e30f7f2	0.17282084
39	0xbd2d74c7	-0.042347696
40	0xbeb59900	-0.35468292
41	0xbe5cf041	-0.21576025
42	0x3e78fab7	0.2431439
43	0x3e440e83	0.19146161
44	0xbe93ff8b	-0.289059
45	0xbdd2c417	-0.102913074
46	0x3d4360a3	0.04769958
47	0x3e1e6727	0.15469037
48	0xbe00cb06	-0.12577447
49	0xbca09cd6	-0.019606035
50	0x3e092a00	0.13394928
51	0x3cf5e8d5	0.03001825
52	0xbda95af2	-0.082692996
53	0x3e8f5408	0.27993798
54	0x3c6508b5	0.013979127
55	0xbc2251ff	-0.009907245
56	0xbd8afd1d	-0.06786559
57	0xbc9c3129	-0.01906641
58	0x3e1a5f84	0.15075499
59	0x3d41fd09	0.047360454
60	0x3cb19022	0.021675173
61	0xbd55d34b	-0.052203458
62	0x3de359be	0.11101101
63	0xbd51e62e	-0.051244907
64	0x3ba8a0ca	0.0051461207
65	0x3c8ad3d0	0.016946703
66	0xbb8247c8	-0.003975842
67	0x3e371b2d	0.1788146
68	0x3e397ad1	0.18113257
69	0x3d88f0bf	0.06686544
70	0x3c1688e2	0.009187909
71	0xbb91f7ac	-0.0044545736
72	0xbdb8acb8	-0.090173185
73	0xbd01185f	-0.031517383
74	0x3c5e8911	0.013582484
75	0xbc638ca8	-0.0138885155
76	0x3e509d78	0.2037257
77	0x3e20e653	0.15712862
78	0x3c9dc576	0.019259196
79	0x3e0c49a1	0.13699962
80	0x3e30de9a	0.17272416
81	0x3e2072b9	0.15668763
82	0xbda56292	-0.080754414
83	0xbd0ce3ab	-0.03439681
84	0x3c6ca3cb	0.014443348
85	0x3daf84ff	0.08570289
86	0x3c4a1cd6	0.012335977
87	0x3d16086c	0.036629125
88	0x3e4ab2a2	0.19794706
89	0x3d743df6	0.059629403
90	0xbdb47321	-0.088110216
91	0x3e2aa4d7	0.16664444
92	0x3e4c9e31	0.1998222
93	0xbe466027	-0.19372617
94	0xbe81ffc4	-0.25390446
95	0xbc98c9b2	-0.018650863
96	0xbe86ee03	-0.26353464
97	0xbef7f5aa	-0.48429614
98	0x3cbdde43	0.023177272
99	0x3e7f18a6	0.24911746
100	0x3d808ba2	0.06276633
101	0x3c7b555e	0.015340177
102	0x3e459cf3	0.19298153
103	0xbe4e135f	-0.20124577
104	0xbdd90bd7	-0.105979614
105	0x3d1ac1a8	0.03778234
106	0xbe1d8aea	-0.15385023
107	0x3c8c63a5	0.017137358
108	0xbe457c64	-0.19285733
109	0xbe975571	-0.29557374
110	0x3cb761ec	0.02238556
111	0xbefccb29	-0.4937375
112	0xbe26be9e	-0.16283652
113	0x3d6feb35	0.05857392
114	0xbe5598d3	-0.20859079
115	0x3c130cae	0.008975191
116	0x3da969bf	0.082721226
117	0x3db67eda	0.08910914
118	0xbeec638c	-0.46169698
119	0x3e403b47	0.18772613
120	0xbce8ed27	-0.028433396
121	0xbf09bf27	-0.538073
122	0x3e77b1c8	0.24188912
123	0x3ad8c3ce	0.0016537847
124	0x3b8a1224	0.0042135883
125	0x3e933b7b	0.28756317
126	0xbe78b546	-0.242879
127	0x3ddf5dc6	0.10906558
128	0x3e02f8aa	0.1279017
129	0xbe390337	-0.18067633
130	0x3d88b275	0.06674663
131	0xbbf0a3f4	-0.0073437635
132	0xbe6efb95	-0.23338158
133	0xbd9981ea	-0.07495482
134	0xbdc9dab8	-0.098561704
135	0x3e2001ac	0.15625638
136	0x3e4a42f2	0.197521
137	0xbe3a92f3	-0.18220119
138	0x3e7e974a	0.248624
139	0x3e3ace66	0.18242797
140	0xbe56c020	-0.20971727
141	0x3eb232c2	0.3480435
142	0x3e3b4719	0.1828884
143	0xbcd6c970	-0.0262191
144	0x3e860537	0.26175854
145	0xba49a284	-0.0007691758
146	0xbdf5c9cf	-0.120013826
147	0x3e536e53	0.20647554
148	0xbd922195	-0.071353115
149	0xbea2dbaf	-0.3180823
150	0x3e01bc87	0.12669574
151	0xbe2df0bb	-0.16986363
152	0xbd870890	-0.0659343
153	0x3e02cc35	0.12773211
154	0x3d2b9556	0.041890465
155	0xbe01f7a4	-0.12692124
156	0x3e088929	0.13333572
157	0xbe2b0de3	-0.16704516
158	0xbda8444a	-0.0821615
159	0x3c1580f9	0.009124988
160	0xbd1de05f	-0.038544055
161	0xbd05ea95	-0.032694418
162	0x3e98397f	0.29731366
163	0x3dbb07b5	0.091323294
164	0xbdadc3a6	-0.084845826
165	0x3e849bc9	0.25900105
166	0xbdda246f	-0.106514804
167	0xbe309fd8	-0.17248476
168	0x3dae5679	0.08512587
169	0xbd55b2f9	-0.052172635
170	0x3d61d9b7	0.05513927
171	0x3e3ebbc4	0.18626314
172	0x3e14f222	0.14545491
173	0xbb50b86c	-0.0031848205
174	0x3dbe6ca7	0.092980675
175	0xbd866efb	-0.065641366
176	0xbe5d5b63	-0.21616893
177	0x3df3ce32	0.11904563
178	0xbe0ebeb8	-0.13939941
179	0xbe0411e0	-0.12897444
180	0xbd868f2d	-0.06570277
181	0xbec3477a	-0.3814047
182	0xbed825c8	-0.42216325
183	0xbe841a7e	-0.25801462
184	0x3ca66dfb	0.020316115
185	0x3da8be59	0.08239431
186	0x3e2294cb	0.15877073
187	0x3eee133c	0.4649905
188	0x3e2695f4	0.1626814
189	0xbd70ac57	-0.058758106
190	0x3de5e5fd	0.112255074
191	0xbd427359	-0.047473285
192	0xbe1b2692	-0.15151432
193	0x3de3ee1a	0.11129399
194	0x3e406aea	0.18790784
195	0xbe4c8686	-0.19973192
196	0xbcd2d9a7	-0.02573855
197	0x3b788d9a	0.0037926198
198	0xbdd1c412	-0.102424756
199	0xbdeffaa0	-0.11717725
200	0x3ea987f5	0.3311154
201	0xbe565049	-0.20929064
202	0xbc197280	-0.009365678
203	0x3e8573f0	0.26065016
204	0xbdcca3df	-0.099921934
205	0xbe6d3a78	-0.23166835
206	0xbd5ec9cf	-0.05439168
207	0xbd903f9c	-0.070433825
208	0xbc876af3	-0.01653049
209	0x3d6b8ccb	0.057507318
210	0xbd091b8f	-0.033473548
211	0x3e490cff	0.19633864
212	0x3e145eb7	0.14489256
213	0xbe919ad0	-0.28438425
214	0xbdba58c9	-0.09098966
215	0xbd87a13c	-0.0662255
216	0x3bfeb238	0.00777271
217	0xbd4e2881	-0.050331596
218	0xbc67d91d	-0.014150885
219	0xbed0dd8a	-0.4079402
220	0xbec293bc	-0.38003337
221	0x3cca5633	0.024699306
222	0x3da831c3	0.08212616
223	0x3e8b2c8e	0.2718243
224	0x3e7aa7e3	0.24478106
225	0xbe8c8dcb	-0.2745193
226	0xbe197081	-0.14984323
227	0xbde1519e	-0.11001895
228	0xbe3809fb	-0.17972557
229	0x3d5e9fdc	0.054351673
230	0x3dfdb9ac	0.1238893
231	0x3effa244	0.49928486
232	0xbe706a36	-0.23478016
233	0x3d22b899	0.039726827
234	0xbe862fe4	-0.26208413
235	0x3e10dbe6	0.14146385
236	0xbde8cf17	-0.11367624
237	0xbe75395a	-0.23947659
238	0x3e3883bb	0.18019001
239	0x3e8637b1	0.26214364
240	0xbeb82210	-0.35963488
241	0xbe0915de	-0.13387248
242	0xbd77ae21	-0.060468797
243	0xbe1686ca	-0.14699855
244	0xbd8a2813	-0.06745925
245	0xbdb38976	-0.08766453
246	0xbe3014fc	-0.17195505
247	0x3da5b3f7	0.08090966
248	0x3e8c5122	0.2740565
249	0xbe8aa579	-0.2707937
250	0xbca7f223	-0.020501202
251	0x3db3c9eb	0.08778747
252	0xbde868f2	-0.11348142
253	0xbd8900e5	-0.06689624
254	0x3ca428c1	0.020038964
255	0xbe2e4543	-0.17018609

conv_block_2.0.bias f4 [10]
0	0x3d32462a	0.043523945
1	0x3dc0690d	0.09395037
2	0x3e3dba60	0.18528128
3	0x3e0057ad	0.12533446
4	0x3e026531	0.12733914
5	0x3da75275	0.08170024
6	0x3e806031	0.25073388
7	0xbe1f2613	-0.15541868
8	0x3d823cb7	0.06359237
9	0x3cf663bf	0.03007686

conv_block_2.2.weight f4 [10, 10, 3, 3]
0	0x3d623ab4	0.055231765
1	0xbdfd504f	-0.12368833
2	0x3cc764bd	0.024340028
3	0x3e26e40e	0.16297933
4	0xbc112aa1	-0.008860261
5	0xbbd70a7b	-0.0065625287
6	0x3de55614	0.11198059
7	0x3d4dab3d	0.050212134
8	0x3c8898de	0.016674455
9	0x3e826c90	0.25473452
10	0x3da2f1ab	0.07956251
11	0xbe112ae3	-0.14176516
12	0xbe7d0bea	-0.24711576
13	0xbe2ba65e	-0.16762683
14	0xbeb64c6e	-0.35605186
15	0xbe96a28e	-0.29420894
16	0xbe4f57d8	-0.20248353
17	0xbdf16805	-0.11787418
18	0x3e5ff254	0.21869785
19	0xbe47cab9	-0.19510926
20	0xbcac7a33	-0.021054363
21	0x3dd23982	0.10264875
22	0xbdcf6efa	-0.10128589
23	0xbe49ef97	-0.19720303
24	0xbe1c3922	-0.1525617
25	0xbdb26a00	-0.08711624
26	0x3d9162bc	0.0709891
27	0xbe86d388	-0.2633326
28	0xbdc001bb	-0.0937533
29	0x3d643ee9	0.05572406
30	0xbd2e011e	-0.042481534
31	0xbec0b9e4	-0.37641823
32	0xbeab747c	-0.33487308
33	0x3ea971ae	0.33094543
34	0x3da603ef	0.08106219
35	0x3d22d8b0	0.03975743
36	0xbe57f9bd	-0.21091361
37	0xbd905030	-0.070465446
38	0xbcb03619	-0.02151017
39	0xbd85bf23	-0.06530597
40	0x3e1999ec	0.15000123
41	0x3cbd61bd	0.023117894
42	0xbe65dc2c	-0.2244727
43	0x3dcc94ff	0.09989356
44	0x3e63333b	0.22187512
45	0x3d0d32d1	0.03447229
46	0xbebd8e1a	-0.37022477
47	0xbde79f10	-0.11309636
48	0x3d6b00f9	0.057373974
49	0xbeabd182	-0.3355828
50	0xbdf83b66	-0.12120704
51	0x3e8f54e1	0.27994445
52	0x3e2c83be	0.1684713
53	0xbe0f0892	-0.13968113
54	0xbdec2780	-0.115309715
55	0xbcf6c6a2	-0.030124012
56	0x3e19a9bd	0.15006156
57	0x3e53043f	0.20607089
58	0xbe130bf6	-0.14360031
59	0xbe3d87df	-0.18508862
60	0xbda2f29c	-0.0795643
61	0x3e14e115	0.14538987
62	0x3d003bba	0.03130696
63	0xbe3799f1	-0.17929818
64	0x3df05214	0.11734405
65	0xbdaacf26	-0.08340292
66	0xbde62c2d	-0.112388946
67	0x3e21940b	0.1577913
68	0xbd0119f3	-0.031518888
69	0xbe9864f0	-0.2976451
70	0xbc1262d8	-0.008934699
71	0x3d308a35	0.043100554
72	0xbe1a454c	-0.15065497
73	0xbdde9ef2	-0.1087016
74	0xbe0bb4ce	-0.1364319
75	0xbe397a50	-0.18113065
76	0x3ddea922	0.10872103
77	0x3d996ab9	0.07491059
78	0x3e5d0a14	0.21585876
79	0xbdc6d416	-0.09708421
80	0xbd6c2823	-0.057655465
81	0xbd9d71aa	-0.07687695
82	0xbdbb75ae	-0.09153305
83	0xbda822ab	-0.082097374
84	0x3ea7ff0c	0.32811773
85	0xbdb7b634	-0.08970299
86	0xbeca94e8	-0.3956673
87	0x3d1919be	0.037378065
88	0x3dbc6e04	0.09200671
89	0x3c713665	0.014722441
90	0xbce39710	-0.027781993
91	0x3e2273a2	0.15864423
92	0x3e0dc675	0.13845237
93	0xbe556531	-0.20839383
94	0x3deb4963	0.11488607
95	0x3c8e0321	0.017335476
96	0xbe7e7efd	-0.2485313
97	0xbc408f9d	-0.01175299
98	0x3e1dfa39	0.15427484
99	0xbe4e5e85	-0.20153244
100	0xbe28fa52	-0.1650174
101	0x3e2df45d	0.16987748
102	0xbd095ef9	-0.03353784
103	0xbe493672	-0.19649675
104	0x3da38233	0.07983818
105	0xbdaebda5	-0.085322656
106	0xbee9a118	-0.45630717
107	0xbd271742	-0.040793665
108	0xbdca1ce1	-0.098687895
109	0x3db7738a	0.08957584
110	0xbc81bac1	-0.015836122
111	0xbeb1cdc8	-0.3472731
112	0xbde8da1a	-0.113697246
113	0x3d11c22e	0.035585575
114	0xbf0f3db8	-0.5595355
115	0xbe88ac50	-0.26693964
116	0x3b3a36a0	0.0028413907
117	0xbd3963b2	-0.045261092
118	0x3d500228	0.050783306
119	0xbec58dd9	-0.38584784
120	0x3e3dbc07	0.18528758
121	0x3de158df	0.11003279
122	0xbdf99630	-0.12186849
123	0x3e73fe1c	0.23827404
124	0x3e23346e	0.15937969
125	0xbe2ac963	-0.16678385
126	0xbdad4041	-0.08459521
127	0xbd17bd36	-0.03704568
128	0xbddddc03	-0.108329795
129	0xbea39de3	-0.31956396
130	0xbe83d13a	-0.25745565
131	0xbe290190	-0.16504502
132	0xbd65ebce	-0.056133084
133	0x3d8b6a27	0.06807356
134	0x3d7fe54a	0.062474526
135	0xbe638f78	-0.22222698
136	0xbcfd0772	-0.03088734
137	0x3b29ca53	0.0025907948
138	0xbe930bb3	-0.28719863
139	0x3cd74acf	0.026280789
140	0x3e22a4d5	0.15883191
141	0xbe3f0b58	-0.18656671
142	0x3e32845c	0.17433304
143	0x3e809c6f	0.2511935
144	0xbd96dfc0	-0.07366896
145	0x3e2e303a	0.17010584
146	0x3d9c7f1c	0.07641432
147	0x3de55a86	0.111989066
148	0x3d6ae931	0.057351295
149	0x3db1029e	0.08643077
150	0x3d2bee88	0.041975528
151	0xbdc1893d	-0.09450004
152	0x3e3310d9	0.17486896
153	0xbdabe333	-0.08392944
154	0xbdc01260	-0.09378505
155	0x3e39e3ab	0.18153255
156	0xbe410d53	-0.18852739
157	0xbeb57e5e	-0.35447973
158	0xbeb2e12e	-0.34937423
159	0xbc0b3d4b	-0.0084985
160	0xbe4b5038	-0.1985482
161	0xbecd0cd9	-0.40048864
162	0xbea44bbc	-0.3208903
163	0xbde30166	-0.11084251
164	0xbe1f2f93	-0.15545492
165	0x3c89fbf7	0.016843779
166	0x3e72dea4	0.23717743
167	0x3e29e3cb	0.16590802
168	0xbdda895a	-0.10670729
169	0xbda6f9ca	-0.08153112
170	0xbdc713df	-0.09720587
171	0xbbbdfcae	-0.005797944
172	0x3e72b50f	0.23701881
173	0xbd95eb92	-0.07320322
174	0x3e1db3ee	0.15400669
175	0xbdde0397	-0.108405285
176	0xbd7e598a	-0.06209711
177	0x3e3afc2b	0.18260257
178	0xbe4d41fc	-0.20044702
179	0x3cd429c6	0.025898825
180	0xbe93b472	-0.28848606
181	0xbdfed3fb	-0.12442776
182	0x3c91b333	0.017785644
183	0xbe9ea608	-0.30986047
184	0xbec19029	-0.37805298
185	0xbebe75f9	-0.3719938
186	0xbe3590f7	-0.17731081
187	0x3cf19686	0.02949072
188	0xbdf4a8f1	-0.119462855
189	0x3e4fbb5a	0.20286313
190	0x3e4035af	0.18770479
191	0x3d8794a0	0.06620145
192	0x3dc43c03	0.09581759
193	0xbe37182e	-0.17880318
194	0xbd919778	-0.071089685
195	0xbd7003a4	-0.058597222
196	0xbe2b6c22	-0.16740468
197	0xbc5defca	-0.01354594
198	0xbd058b33	-0.032603454
199	0x3e1605bd	0.14650626
200	0x3e82eb4b	0.2557014
201	0xbe286b85	-0.16447265
202	0xbcff29f4	-0.031147934
203	0xbe09bd1e	-0.13451049
204	0x3dfd53e0	0.123695135
205	0x3dae0803	0.08497622
206	0x3e70fe07	0.23534404
207	0x3e604370	0.21900725
208	0x3df9324d	0.12167797
209	0x3df516ca	0.11967237
210	0x3dbbb5ac	0.091655105
211	0xbd30b1dc	-0.04313837
212	0x3d98484b	0.07435664
213	0x3d07eab0	0.0331828
214	0x3ae379f1	0.0017355067
215	0xbe298496	-0.16554484
216	0xbe942e9c	-0.2894181
217	0x3e1e3392	0.1544936
218	0xbb9d7b41	-0.004805953
219	0xbe6f6896	-0.2337974
220	0xbe13e154	-0.14441425
221	0xbe9075d7	-0.28214905
222	0x3e01254a	0.12611881
223	0xba2b52db	-0.0006535479
224	0x3e35a78b	0.17739694
225	0x3d8b086a	0.06788714
226	0x3e0bfd55	0.13670857
227	0x3e8ffa2b	0.2812055
228	0xbdd66de8	-0.10470182
229	0xbdcd1ab6	-0.1001486
230	0xbea3c237	-0.31984112
231	0x3da46d7c	0.08028695
232	0x3e466581	0.19374658
233	0xbdf95142	-0.12173702
234	0x3d6bede0	0.057599902
235	0x3e58a8f0	0.21158195
236	0xbe1a1e58	-0.15050638
237	0xbbddd9c5	-0.006770345
238	0xbe143d9b	-0.14476626
239	0xbe0057d4	-0.12533504
240	0xbea16cde	-0.31528372
241	0xbd21f9cd	-0.03954487
242	0xbe8fdbb1	-0.280973
243	0xbe36055c	-0.17775482
244	0xbe156dc0	-0.14592648
245	0x3da3c5c7	0.079967074
246	0xbdebd8da	-0.115159705
247	0x3e1535ab	0.14571254
248	0xbe2f58eb	-0.17123763
249	0x3c515fb1	0.012779162
250	0x3e18d136	0.14923558
251	0x3e6cc11d	0.23120542
252	0xbec32dc5	-0.38120857
253	0xbe947d06	-0.29001635
254	0xbe2d0894	-0.16897804
255	0xbe838423	-0.2568675

conv_block_2.2.bias f4 [10]
0	0x3d25144d	0.040302563
1	0xbd5709d8	-0.052499622
2	0xbcbf7f63	-0.023376172
3	0x3da6dbae	0.08147369
4	0x3da98e55	0.08279101
5	0xbdad8f45	-0.08474592
6	0xbdbfc946	-0.09364562
7	0xbd2b0f4c	-0.041762635
8	0xbd5228e4	-0.051308528
9	0xbd51aa42	-0.05118776

classifier.1.weight f4 [10, 490]
0	0x3c59a5e5	0.013284181
1	0xbdcbdd69	-0.0995434
2	0xbcf8f75c	-0.030391388
3	0xbcd2f4ef	-0.025751559
4	0x3d55261f	0.05203831
5	0x3d16b08a	0.036789455
6	0x3cfa9afa	0.030591477
7	0xbe69446a	-0.22780004
8	0x3e02bada	0.1276659
9	0xbc87c66e	-0.01657411
10	0x3d845978	0.06462377
11	0x3d9ed0b1	0.077546485
12	0x3defd3e3	0.11710336
13	0x3e8330b3	0.25623092
14	0x3e027d5c	0.12743133
15	0x3d9f21c0	0.07770109
16	0xbe240c00	-0.16020203
17	0x3cc7f499	0.024408625
18	0x3c2a7e6b	0.010406117
19	0x3d0070b9	0.0313575
20	0x3e1a88e8	0.15091288
21	0xbe7a7c54	-0.2446149
22	0xbddce60c	-0.107860655
23	0xbe07eee5	-0.13274725
24	0xbdbf6158	-0.09344739
25	0xbc1700e4	-0.009216521
26	0x3d29373b	0.041312438
27	0x3de8061c	0.1132929
28	0xbf03d762	-0.51500523
29	0xbd10330c	-0.035204932
30	0xbbbc34c4	-0.005743595
31	0x3d664be7	0.05622473
32	0xbe98ddea	-0.29856807
33	0xbe1ab773	-0.15109043
34	0xbd5b4784	-0.053535
35	0xbd3fe830	-0.04685229
36	0x3dc3b049	0.09555108
37	0x3e1dba50	0.15403104
38	0x3e7854bc	0.24251074
39	0xbdf7c8f3	-0.12098875
40	0xbea42efd	-0.320671
41	0xbe68b9bb	-0.227271
42	0x3de335b5	0.11094228
43	0x3d755dd9	0.059903953
44	0x3e36055d	0.17775483
45	0xbefc136c	-0.49233568
46	0xbf43bc5e	-0.764593
47	0xbf054c4f	-0.5206956
48	0xbe7b7f8b	-0.24560373
49	0xbdb6cc5d	-0.08925698
50	0xbe50cb59	-0.20390071
51	0x3d9cc12b	0.07654031
52	0xbe98481f	-0.29742524
53	0xbd936462	-0.07196881
54	0xbc0456a4	-0.008077297
55	0xbc6bf12e	-0.014400763
56	0xbe147b13	-0.14500074
57	0x3d3e51d2	0.04646475
58	0xbe5a154c	-0.21297187
59	0xbe90d520	-0.282876
60	0x3d212510	0.039341986
61	0x3dcca0bb	0.099915944
62	0xbe13a5ce	-0.14418718
63	0x3d4f0df0	0.0505504
64	0x3cb4a896	0.022053044
65	0xbdf4af81	-0.11947537
66	0x3dffe778	0.12495321
67	0x3daf09a2	0.08546759
68	0x3e1a9769	0.15096821
69	0xbe669ce2	-0.22520784
70	0x3ceb22b2	0.028703067
71	0x3d42884e	0.04749327
72	0x3dd946b3	0.10609188
73	0xbd4f3035	-0.050583083
74	0x3dcaf7db	0.09910556
75	0x3e402659	0.18764628
76	0xbcf39a01	-0.02973652
77	0x3b2b9971	0.0026183988
78	0x3d8bbf0d	0.068235494
79	0x3dd26fca	0.10275228
80	0xbe877ecd	-0.2646393
81	0xbd84235d	-0.064520575
82	0xbe88ad3a	-0.2669466
83	0xbd00cbe5	-0.03144445
84	0x3e0f46da	0.13991871
85	0x3da56eb5	0.08077756
86	0x3e010ad7	0.12601791
87	0xbead9212	-0.33900505
88	0xbe91a152	-0.2844339
89	0xbdbefe2b	-0.093258224
90	0x3be9e3df	0.00713776
91	0xbca73275	-0.020409802
92	0x3e1dfa17	0.15427433
93	0xbc9ff88a	-0.019527692
94	0xbe5d7259	-0.21625651
95	0x3d9e9a91	0.07744325
96	0xbd83f356	-0.06442897
97	0x3b706494	0.0036681043
98	0xbe17cff1	-0.14825417
99	0x3d0c1c80	0.034206867
100	0xbd806835	-0.06269876
101	0xbd329442	-0.04359842
102	0xbc33c016	-0.01097109
103	0x3df0771e	0.1174147
104	0x3d49154a	0.04909257
105	0xbbc46092	-0.0059929574
106	0x3ce87a30	0.028378576
107	0xbc622b59	-0.01380428
108	0x3d978419	0.073982425
109	0x3e14bce7	0.14525186
110	0xbd8951d0	-0.067050576
111	0xbce3398a	-0.027737398
112	0xbdd19b40	-0.1023469
113	0xbe50611c	-0.20349544
114	0xbefe0324	-0.4961177
115	0xbe9fe9ad	-0.31232968
116	0xbd69f08f	-0.05711418
117	0xbef9c23b	-0.48781
118	0xbe5cf8b9	-0.21579255
119	0xbe9656ad	-0.29363003
120	0xbf3271ec	-0.6970508
121	0xbe27fe20	-0.16405535
122	0x3d700fc4	0.058608785
123	0x3b922e17	0.0044610607
124	0xbd2ab50d	-0.04167657
125	0xbd0f38dc	-0.034966335
126	0xbc696718	-0.014245771
127	0xbee8c4a6	-0.4546253
128	0xbe8acd85	-0.27109924
129	0xbbeb6b27	-0.0071844044
130	0xbeaefccb	-0.3417724
131	0x3e922f00	0.28551483
132	0x3df7d5a8	0.121012986
133	0xbd98fa28	-0.074695885
134	0xbd968328	-0.07349235
135	0xbd38054e	-0.044926934
136	0x3e216ae7	0.15763436
137	0x3db0302f	0.0860294
138	0x3e723c06	0.2365571
139	0x3dbc5fe5	0.09197978
140	0x3e03c7f0	0.12869239
141	0x3dbdb7f1	0.092636
142	0x3d2fb855	0.042900402
143	0x3d0e55aa	0.034749664
144	0x3bd878ad	0.0066061825
145	0xbdd92972	-0.10603608
146	0xbe87b0c1	-0.2650204
147	0x39a91989	0.00032253217
148	0xbd6c0a8a	-0.05762724
149	0xbdaa6291	-0.08319581
150	0xbdb8e39e	-0.090277895
151	0xbde3a4fb	-0.11115452
152	0xbe583336	-0.21113285
153	0xbe67ec38	-0.22648704
154	0xbe4ed839	-0.2019967
155	0xbe07498d	-0.13211651
156	0xbde25769	-0.110518284
157	0x3deb3cc7	0.11486202
158	0x3db9603a	0.09051557
159	0xbe0c7642	-0.13716987
160	0xbd7501fa	-0.059816338
161	0xbeaad4fd	-0.33365622
162	0x3e1bd756	0.15218863
163	0xbda23842	-0.079208866
164	0x3e0bbe02	0.13646701
165	0x3db533f7	0.08847802
166	0xbe2ef5e9	-0.17085995
167	0xbe717fc7	-0.235839
168	0x3d12aaa5	0.03580727
169	0x3cd6ad92	0.026205812
170	0x3c81c291	0.015839847
171	0xbdd38d06	-0.103296325
172	0xbec49429	-0.38394287
173	0xbad492d6	-0.0016218077
174	0xbd44fae2	-0.048090823
175	0x3d404baa	0.04694716
176	0x3db151cf	0.08658182
177	0xbd68afd3	-0.056808304
178	0xbe8c380e	-0.27386516
179	0xbd3a28aa	-0.045448937
180	0x3df4232c	0.11920771
181	0xbeb58307	-0.35451528
182	0x3dcfdeff	0.10149955
183	0xbd08e40e	-0.033420615
184	0xbe06a2ec	-0.13148087
185	0xbc87aec3	-0.016562825
186	0x3d1081c5	0.035280008
187	0x3d14a568	0.036290556
188	0x3c91a7e0	0.017780244
189	0xbe3d1d54	-0.18468219
190	0xbea55576	-0.32291764
191	0xbe8a0a48	-0.2696097
192	0xbe355c3b	-0.17710964
193	0xbe3dcd01	-0.18535234
194	0xbd648a07	-0.055795696
195	0x3e482b04	0.19547659
196	0x3e3184e4	0.1733585
197	0xbbfb6634	-0.0076720957
198	0xbd559093	-0.05213983
199	0xbd36428d	-0.04449706
200	0xbd6756cf	-0.05647927
201	0xbc6a95d5	-0.014317949
202	0x3e116e62	0.14202264
203	0xbe8c7f2d	-0.27440777
204	0xbe91d90e	-0.28485912
205	0xbe47c4b1	-0.19508626
206	0x3e26a8ef	0.1627538
207	0x3e554227	0.20826016
208	0x3e71b9de	0.23606059
209	0x3e1146b6	0.1418713
210	0xbe714670	-0.23562026
211	0xbe491bbd	-0.19639488
212	0xbef9ef18	-0.48815227
213	0x3e2ef280	0.17084694
214	0x3d038665	0.03211059
215	0xbe0ed931	-0.1395004
216	0xbc9c0eec	-0.019050084
217	0xbe108337	-0.14112554
218	0xbe6b7bca	-0.2299644
219	0xbe266865	-0.16250761
220	0x3eb86e82	0.3602181
221	0x3e50c329	0.20386948
222	0xbf3bda3b	-0.7337987
223	0xbda41fd5	-0.08013884
224	0xbdb98278	-0.09058088
225	0x3de1923b	0.110142194
226	0x3ddebf24	0.10876301
227	0x3cbac6ea	0.022799928
228	0xbea62434	-0.32449496
229	0xbf08e2ec	-0.53471255
230	0xbe5d6c30	-0.21623302
231	0x3c58aeb6	0.013225248
232	0xbd664995	-0.056222517
233	0x3b81b927	0.0039588395
234	0xbe28ddb7	-0.16490828
235	0xbecfb53c	-0.40567958
236	0xbe37d9f2	-0.17954233
237	0x3dc04157	0.093874626
238	0x3e2c7f33	0.16845398
239	0xbed44066	-0.41455382
240	0xbe4d4eee	-0.2004964
241	0xbf13d5a6	-0.57747877
242	0xbe66e576	-0.2254847
243	0xbcdf2071	-0.027237149
244	0xbe81d892	-0.25360543
245	0xbe1ccbd5	-0.15312131
246	0xbe2c2658	-0.16811502
247	0xbd288ae4	-0.04114808
248	0xbd1f516b	-0.038896006
249	0xbda03ca2	-0.07824065
250	0xbd404c49	-0.04694775
251	0x3cf1e88f	0.029529838
252	0x3d0bf4ad	0.034168888
253	0xbe0d6c67	-0.13810883
254	0xbbc22577	-0.0059248763
255	0xbda53051	-0.08065856

classifier.1.bias f4 [10]
0	0x3d9c5b4f	0.07634603
1	0x3e52ec05	0.20597847
2	0x3d497f14	0.049193457
3	0xbe39cdad	-0.18144865
4	0xbcc764df	-0.024340091
5	0xbd30166c	-0.042990133
6	0x3d0bfbc3	0.034175646
7	0x3ca64319	0.020295667
8	0x3c19d47f	0.009389042
9	0xbd508848	-0.050911218
